Pricing model/best_model_cluster_1.pt (torch, 13395 bytes, 5 tensors)

fc1.weight f4 [64, 7]
0	0x3e6d7ef1	0.23192956
1	0xbface6f7	-1.3507985
2	0x3e1b919a	0.15192261
3	0x3e9153c1	0.28384212
4	0xbfbdef13	-1.4838585
5	0xbdc621e8	-0.09674436
6	0xc070ebc1	-3.7643893
7	0xbfb75b81	-1.43248
8	0xbd75d6ca	-0.060019292
9	0xbe9be3c9	-0.30447224
10	0x3ea72ef3	0.32653007
11	0xbf330f71	-0.69945437
12	0xbd9ebe40	-0.07751131
13	0x3f89eb92	1.0775015
14	0xbed04257	-0.40675613
15	0xbff095bd	-1.8795696
16	0x3e896ddb	0.26841626
17	0x3d35e890	0.044411242
18	0xbfc24a6b	-1.517896
19	0xbddafbe8	-0.106925786
20	0xc069fb3d	-3.6559594
21	0xbf9eee4c	-1.2416472
22	0xbef3774b	-0.4755195
23	0xbead29ec	-0.33821046
24	0xbd58be38	-0.05291578
25	0xbf1211f9	-0.57058674
26	0x3e1b35a2	0.15157178
27	0x3f8479ca	1.0349667
28	0xbebdc636	-0.37065285
29	0xbfb50520	-1.4142189
30	0x3eab07ad	0.33404294
31	0x3e4da1da	0.20081273
32	0xbf9e08ec	-1.2346473
33	0x3eb9cefd	0.36290732
34	0xc062e0f3	-3.5449798
35	0xbfa1002b	-1.2578176
36	0xbed936ee	-0.4242472
37	0xbd9e9994	-0.077441365
38	0x3e92571b	0.2858208
39	0xbf1c6985	-0.6109851
40	0x3e0c124e	0.13678858
41	0x3fa4b252	1.2866919
42	0xbf8b8673	-1.0900406
43	0xbeb847f5	-0.359924
44	0x3ea7f3d9	0.32803228
45	0x3d89d668	0.06730348
46	0xbf02d635	-0.51108104
47	0x3dc274fc	0.09494969
48	0x3f9549dc	1.1663165
49	0xbfd5e0f3	-1.6709274
50	0xbdee2701	-0.11628533
51	0xbd4f5530	-0.05061835
52	0x3ea2d17d	0.31800452
53	0xbf306f53	-0.6891987
54	0x3c5b8dc0	0.013400495
55	0x3f927c71	1.1444227
56	0xbec91592	-0.3927427
57	0xbffc4aab	-1.9710287
58	0x3e27d842	0.1639109
59	0x3e7f0ea2	0.24907926
60	0xbfd7cc40	-1.6859207
61	0xbeba10a3	-0.36340818
62	0xc0771ec8	-3.8612537
63	0xbf9cc4a5	-1.2247511
64	0xbeeddd0b	-0.46457705
65	0xbdc5557c	-0.096354455
66	0xbe908472	-0.28226048
67	0xbeb23155	-0.34803262
68	0xbe3a0921	-0.18167545
69	0x3f8c3362	1.0953181
70	0xbf0305d4	-0.5118077
71	0xbfbde4e2	-1.4835474
72	0xbdc457e4	-0.09587076
73	0xbd0bd308	-0.034136802
74	0xbfbe4d91	-1.4867421
75	0x3ebce429	0.36892822
76	0xc0716c74	-3.7722445
77	0xbe68f19e	-0.2274842
78	0xbffa22c5	-1.9541861
79	0xbda17d18	-0.07885188
80	0x3e86ac81	0.26303485
81	0xbf97c7ee	-1.1857889
82	0xbdac1e50	-0.08404219
83	0xc05e5f70	-3.474575
84	0xbfcb27fe	-1.587158
85	0xbe8702a0	-0.2636919
86	0x3eb697c7	0.35662672
87	0xbe9e5b9e	-0.30929273
88	0xbedd1cb5	-0.43185964
89	0x3e965c07	0.29367086
90	0x3f8dc670	1.1076183
91	0xbfc59e0e	-1.543886
92	0xbd4be9c9	-0.0497835
93	0x3ea535ab	0.32267508
94	0x3e0c75a2	0.13716748
95	0xbf48f511	-0.7849894
96	0x3e4ea272	0.20179155
97	0x3f7781c9	0.9668241
98	0x3e515f7e	0.20446584
99	0xbfd1fc19	-1.6405059
100	0x3e650f42	0.22369102
101	0xbebffe81	-0.3749886
102	0xbfb98b4c	-1.4495635
103	0x3eb044d9	0.34427527
104	0xc079a444	-3.900651
105	0xbfd5323e	-1.6655958
106	0x3e157655	0.14595921
107	0xbeb3baf9	-0.35103586
108	0x3e54dc96	0.20787272
109	0xbebbc1cb	-0.3667129
110	0xbe26ab6e	-0.16276333
111	0x3f62cd03	0.88594073
112	0xbd90bb26	-0.07066946
113	0xbfc321a6	-1.5244644
114	0x3ebfb10f	0.37439772
115	0xbe63a508	-0.22230923
116	0xbfa3e52c	-1.2804313
117	0x3e8b7c0b	0.27243075
118	0xc075516b	-3.8330944
119	0xbe4aec5d	-0.19816728
120	0xbff1f568	-1.8903017
121	0x3d37cfe8	0.04487601
122	0xbe3e80af	-0.18603776
123	0xbfa9831d	-1.3243138
124	0x3e561012	0.20904568
125	0xc07eb331	-3.979687
126	0x3e44f626	0.19234523
127	0xbffa9077	-1.9575337
128	0x3e7389e2	0.23783067
129	0xbe9eab3a	-0.3099001
130	0xbfbc00a0	-1.4687691
131	0xbca633a0	-0.020288289
132	0xc07ca02a	-3.9472756
133	0xbfa2133b	-1.2662119
134	0xbe4af055	-0.19818242
135	0x3e5043a2	0.203383
136	0xbd369c98	-0.044582933
137	0xbf48f6df	-0.78501695
138	0xbe7fdefa	-0.24987403
139	0x3f88eedb	1.0697893
140	0xbec016c0	-0.37517357
141	0xbffcf3b2	-1.976187
142	0x3d8ed768	0.06974679
143	0x3eb15bb9	0.3464029
144	0xbfc078de	-1.5036886
145	0xbd884a28	-0.06654769
146	0xc07141fe	-3.7696528
147	0x3e98a122	0.29810435
148	0xbffa4b84	-1.9554296
149	0x3ea3807b	0.3193396
150	0xbd2b9680	-0.041891575
151	0xbfc23519	-1.5172454
152	0x3d4769a0	0.048684716
153	0xc0728cc7	-3.7898424
154	0xbfbe529e	-1.4868963
155	0xbf0f3a36	-0.559482
156	0x3c37b900	0.011213541
157	0x3e05b536	0.13057408
158	0xbf2bb3a7	-0.67071
159	0x3e395bd2	0.18101433
160	0x3f906f8a	1.1284039
161	0x3e06dc45	0.13169964
162	0xbfc986df	-1.5744284
163	0xbe3504c8	-0.17677605
164	0x3e4e4ffe	0.20147702
165	0xbfb192db	-1.3872942
166	0x3c1ce460	0.009575933
167	0xc05f12c3	-3.4855201
168	0x3dac9276	0.08426373
169	0xbfd937c1	-1.697014
170	0x3eacca03	0.33747873
171	0x3d0699f8	0.03286168
172	0xbfc24e09	-1.5180064
173	0xbc94adb0	-0.018149227
174	0xc05f75ed	-3.4915726
175	0xbeda17fc	-0.42596424
176	0xbfed19fc	-1.8523555
177	0xbc950dc0	-0.018195033
178	0xbe938e74	-0.2881962
179	0xbf93c2a6	-1.1543777
180	0xbe9cf9bd	-0.30659285
181	0xc07db9cb	-3.964465
182	0x3ed8db00	0.42354584
183	0xbfefc780	-1.8732758
184	0x3d109428	0.035297543
185	0x3e58098e	0.21097395
186	0xbfa7cec5	-1.3109976
187	0xbcc951a0	-0.024575055
188	0xc0735f1f	-3.8026807
189	0x3e9f3d42	0.31101424
190	0xbfd07b05	-1.6287543
191	0x3b8862c0	0.0041621625
192	0xbe8c7be7	-0.2743828
193	0xbf79a97e	-0.9752425
194	0x3e383926	0.1799055
195	0xc05d5ae1	-3.4586718
196	0xbfdd27fc	-1.7277827
197	0x3d976a08	0.07393271
198	0xbe97cc84	-0.2964822
199	0xbd71f2c8	-0.059069425
200	0xbeb4b1a5	-0.35291782
201	0x3e8ce4d7	0.2751834
202	0x3f9f765b	1.2457994
203	0xbf91d50d	-1.1393143
204	0xbead899e	-0.33894056
205	0xbeba76c2	-0.3641873
206	0xbebe891a	-0.37213975
207	0xbf0e1591	-0.5550166
208	0xbe38025c	-0.1796965
209	0x3f914ade	1.1350973
210	0xbfa14e6c	-1.2602057
211	0xbe9ccfbc	-0.3062724
212	0xbd0681c0	-0.032838583
213	0x3d456fb8	0.048202246
214	0xbea95576	-0.33073014
215	0xbea03c54	-0.31296027
216	0x3f9589d4	1.1682687
217	0xbfc30ecc	-1.5238891
218	0xbe096edc	-0.13421196
219	0xbccca0c0	-0.024978995
220	0xbe9df95c	-0.3085431
221	0xbe586bd9	-0.2113489
222	0x3e81931f	0.25307557
223	0x3fa2aea8	1.2709551
224	0xbec577fc	-0.38568103
225	0xbfc15965	-1.5105406
226	0xbe772590	-0.24135423
227	0xbd411bf8	-0.047145814
228	0xbf8cfe54	-1.1015115
229	0x3e7f0e32	0.24907759
230	0xc0612ceb	-3.5183666
231	0xbec9646e	-0.39334434
232	0xbfbd54e2	-1.4791529
233	0xbbdb7740	-0.0066975653
234	0x3c439ce0	0.011939257
235	0xbfcba135	-1.5908571
236	0xbea4cb12	-0.3218618
237	0xc06e31e9	-3.7217963
238	0xbe90e95a	-0.28303033
239	0xc00b9dff	-2.1815183
240	0xbe7e994b	-0.24863164
241	0x3e81e68b	0.25371203
242	0xbfb8b38a	-1.4429791
243	0x3d0a6a50	0.033792794
244	0xc06d417d	-3.707122
245	0xbfcd89c2	-1.6057665
246	0x3e2966d7	0.16543137
247	0x3df32428	0.11872131
248	0xbe13a5aa	-0.14418665
249	0xbea73550	-0.32657862
250	0xbd89288c	-0.06697187
251	0x3f7692ac	0.96317554
252	0xbfbe0df4	-1.4848008
253	0xbec5d93c	-0.386423
254	0xbe534f72	-0.20635775
255	0xbe81d99f	-0.25361344

fc1.bias f4 [64]
0	0xc0ae6e0d	-5.450934
1	0x400be330	2.1857414
2	0xc0aed2bb	-5.463224
3	0x4006f662	2.108788
4	0xc0ada7c9	-5.4267316
5	0x4002d0dd	2.043998
6	0x4001700e	2.0224643
7	0x400f9851	2.2436717
8	0xc0ad1a87	-5.409488
9	0x4009a1ba	2.150496
10	0xc0af9596	-5.48701
11	0xc0a5ac5e	-5.177291
12	0x400d5274	2.2081575
13	0x400f6604	2.2406015
14	0xc0add781	-5.4325566
15	0x40024873	2.035672
16	0xc0a786a3	-5.235185
17	0xc0ac6f4c	-5.388586
18	0xc0ab53a7	-5.3539615
19	0x40030caf	2.0476491
20	0xc0a4bfa9	-5.148396
21	0xc0a9ae32	-5.302514
22	0x4011e4d2	2.279591
23	0xc0aae7c6	-5.3407927
24	0xc0adc7fd	-5.4306626
25	0xc0a6f2b8	-5.2171288
26	0xc0a9c3c1	-5.3051457
27	0xc0ac6e67	-5.388477
28	0x40071b1e	2.11103
29	0x4004212e	2.0645251
30	0x400353d7	2.0519922
31	0x40015fda	2.0214753
32	0xc0ab90cf	-5.361427
33	0xc0a64dff	-5.197021
34	0xc0addb92	-5.433053
35	0x40056d33	2.08479
36	0x4007fb0f	2.1246984
37	0xc0aa7bb4	-5.3276005
38	0xc0acd3f5	-5.4008737
39	0xc0ae5f29	-5.449116
40	0xc0a3f405	-5.1235375
41	0xc0aec184	-5.4611225
42	0x4000fe72	2.01553
43	0x4000813f	2.0078886
44	0xc0a96178	-5.293148
45	0x4008fd44	2.140458
46	0x400804ce	2.1252933
47	0xc0aca5d2	-5.3952417
48	0xc0a8c3cc	-5.273901
49	0xc0a9d7b9	-5.3075833
50	0xc0a6cab6	-5.212245
51	0x400739d1	2.1129038
52	0x400d3f9e	2.207008
53	0xc0ad1d54	-5.40983
54	0x4002af66	2.0419555
55	0x400c3b9d	2.1911385
56	0xc0aac8d9	-5.3370175
57	0x400666f2	2.1000333
58	0xc0af118d	-5.4708924
59	0xc0a9dce3	-5.3082137
60	0xc0afde4b	-5.4958854
61	0x400f6632	2.2406125
62	0x400af4c8	2.1711903
63	0xc0ac90f8	-5.3926964

fc2.weight f4 [32, 64]
0	0xc0885fb0	-4.2616806
1	0x3fc152d2	1.51034
2	0xc083d38d	-4.119574
3	0x3fde2151	1.7353917
4	0xc087acc5	-4.23984
5	0x3fc57574	1.5426469
6	0x3fc7feb4	1.5624604
7	0x3fb5adce	1.4193666
8	0xc08016e1	-4.002793
9	0x3fcca92e	1.598913
10	0xc085041f	-4.156753
11	0xc08a6eb0	-4.3260117
12	0x3fd6fd17	1.6795987
13	0x3fc7e9bd	1.5618206
14	0xc08c066b	-4.3757834
15	0x3fc38e71	1.5277845
16	0xc0886534	-4.262354
17	0xc0825440	-4.0727844
18	0xc0868b75	-4.2045236
19	0x3fc63e32	1.548773
20	0xc087c46e	-4.242728
21	0xc0834aed	-4.102896
22	0x3fbecafa	1.4905694
23	0xc08b798e	-4.358588
24	0xc085a4d9	-4.176373
25	0xc0865379	-4.1976895
26	0xc084a4fa	-4.1451387
27	0xc0900fd9	-4.5019345
28	0x3fd9c3c9	1.7012874
29	0x3fc1e2b2	1.5147307
30	0x3fcd28cd	1.6028076
31	0x3fc69777	1.5514973
32	0xc0845282	-4.1350718
33	0xc08891c7	-4.267795
34	0xc080d79f	-4.026321
35	0x3fd98597	1.6993893
36	0x3fd2a33b	1.6456064
37	0xc0886cd4	-4.2632847
38	0xc086de20	-4.214615
39	0xc085e595	-4.184275
40	0xc0804c90	-4.009346
41	0xc0870210	-4.219002
42	0x3fcb0b89	1.5862895
43	0x3fb9c192	1.4512198
44	0xc081ebc2	-4.060029
45	0x3fd65ba1	1.6746713
46	0x3fcb15eb	1.5866064
47	0xc086f777	-4.217708
48	0xc0852441	-4.1606755
49	0xc08ce2e9	-4.402699
50	0xc0852e7b	-4.161924
51	0x3fd22e94	1.6420465
52	0x3fb53bbc	1.4158854
53	0xc080e402	-4.027833
54	0x3fd4b4c3	1.6617664
55	0x3fc884e8	1.566556
56	0xc0806ea0	-4.013504
57	0x3fc548d9	1.5412856
58	0xc088262d	-4.25466
59	0xc0830ea8	-4.095539
60	0xc08b0419	-4.34425
61	0x3fb117be	1.383537
62	0x3fb95140	1.447792
63	0xc085ebb2	-4.1850214
64	0xc0885554	-4.260416
65	0x3fc7995d	1.5593678
66	0xc07bd4a3	-3.9348533
67	0x3fc8c738	1.5685797
68	0xc0886f1b	-4.2635627
69	0x3fd7efe0	1.6870079
70	0x3fbbe374	1.4678788
71	0x3fb64e9c	1.424274
72	0xc08371ea	-4.1076555
73	0x3fcfa4f7	1.6222218
74	0xc085456a	-4.1647234
75	0xc0856566	-4.1686277
76	0x3fdc738b	1.7222761
77	0x3fbf1261	1.4927484
78	0xc08bbcc4	-4.3667927
79	0x3feeefff	1.8666991
80	0xc08e25e9	-4.4421277
81	0xc0835d0d	-4.1051087
82	0xc0837e6c	-4.1091824
83	0x3fc2659a	1.5187256
84	0xc0890dc3	-4.28293
85	0xc0886738	-4.2626
86	0x3fba5d1a	1.4559662
87	0xc08560f9	-4.1680875
88	0xc0873bb2	-4.226037
89	0xc088f495	-4.279856
90	0xc0855e1b	-4.1677375
91	0xc08f17e2	-4.4716654
92	0x3fd4537f	1.6587981
93	0x3fc73151	1.5561925
94	0x3fd37d61	1.6522638
95	0x3fcb00a6	1.5859573
96	0xc08a0bd1	-4.3139424
97	0xc08b2021	-4.347672
98	0xc085f716	-4.186412
99	0x3fda8c12	1.7073996
100	0x3fe51549	1.7897121
101	0xc08dbed3	-4.429544
102	0xc083080f	-4.0947337
103	0xc08a0d4e	-4.314124
104	0xc0880fad	-4.2519135
105	0xc08582c0	-4.1722107
106	0x3fd9b94c	1.7009673
107	0x3fcddd65	1.6083189
108	0xc084da17	-4.1516223
109	0x3fd71e26	1.6806076
110	0x3fda431c	1.705173
111	0xc08c13ec	-4.377432
112	0xc0801e44	-4.0036945
113	0xc08abe2f	-4.335716
114	0xc0885255	-4.2600503
115	0x3fe24df8	1.7680044
116	0x3fc2fda2	1.5233653
117	0xc0889226	-4.2678404
118	0x3fe10a0d	1.7581192
119	0x3fdd4ee5	1.7289702
120	0xc07fe739	-3.9984877
121	0x3fcc7d17	1.5975674
122	0xc0891257	-4.2834888
123	0xc0839d6b	-4.112966
124	0xc08cbf3b	-4.3983436
125	0x3fc2c351	1.5215856
126	0x3fac632c	1.3467765
127	0xc0847671	-4.139458
128	0xc085cb5a	-4.181073
129	0x3fac1571	1.3444043
130	0xc08215d3	-4.065164
131	0x3fc00b8f	1.5003527
132	0xc0852d06	-4.161746
133	0x3fcab1da	1.5835526
134	0x3fd47e4b	1.6601042
135	0x3fcc60c8	1.5967035
136	0xc07d3d02	-3.9568486
137	0x3fce3c7c	1.6112208
138	0xc0826ea5	-4.0760064
139	0xc08287ed	-4.0790925
140	0x3fd1be76	1.6386249
141	0x3fc1f01f	1.5151404
142	0xc08a7ca9	-4.3277173
143	0x3fdc7c62	1.7225459
144	0xc0888cb9	-4.267178
145	0xc084837e	-4.1410513
146	0xc0853d17	-4.1637073
147	0x3fce533d	1.6119152
148	0xc084312f	-4.131004
149	0xc089811b	-4.29701
150	0x3fc20896	1.515887
151	0xc08941f1	-4.2892995
152	0xc08947d7	-4.2900195
153	0xc07efc2e	-3.9841418
154	0xc086d16e	-4.213065
155	0xc0895280	-4.291321
156	0x3fc09e2e	1.5048273
157	0x3fd1ab47	1.6380395
158	0x3fcb706b	1.5893682
159	0x3fbdad8f	1.4818591
160	0xc0834486	-4.1021147
161	0xc085b664	-4.1785145
162	0xc0869110	-4.205208
163	0x3fdd645e	1.7296255
164	0x3fc6a74b	1.5519804
165	0xc08c2ec1	-4.3807073
166	0xc08566cf	-4.1688
167	0xc08191d3	-4.049051
168	0xc08441c9	-4.1330304
169	0xc0824f93	-4.0722136
170	0x3fc30aa2	1.523762
171	0x3fcb32cb	1.5874876
172	0xc0837398	-4.1078606
173	0x3fc432a8	1.5327959
174	0x3fc41747	1.5319604
175	0xc081e20d	-4.058844
176	0xc07d7bfb	-3.9606922
177	0xc086cfa5	-4.212847
178	0xc0840e46	-4.1267424
179	0x3fd16eb7	1.6361912
180	0x3fb60eb4	1.4223237
181	0xc086cf33	-4.212793
182	0x3fcf0a5d	1.6175038
183	0x3fb84b4a	1.4397976
184	0xc0850914	-4.157358
185	0x3fb8718e	1.4409654
186	0xc0855e58	-4.1677666
187	0xc082f495	-4.092356
188	0xc0877ce5	-4.233996
189	0x3fb84a2b	1.4397634
190	0x3fab1f8d	1.3369004
191	0xc0879e73	-4.238092
192	0x408a9ec9	4.331883
193	0xbfc35d17	-1.5262784
194	0x4080385a	4.006879
195	0xbfbd34c9	-1.4781734
196	0x40877e17	4.234142
197	0xbfc09b80	-1.5047455
198	0xbfd55b37	-1.6668462
199	0xbfaeb8e0	-1.3650169
200	0x40828922	4.07924
201	0xbfbf7aac	-1.4959311
202	0x4086e6bd	4.2156663
203	0x408b1cd9	4.3472714
204	0xbfd8d87f	-1.6941069
205	0xbfd372f1	-1.6519452
206	0x408af70a	4.342656
207	0xbfd1d6e6	-1.6393707
208	0x408b61aa	4.355672
209	0x408462e3	4.137071
210	0x40882561	4.254563
211	0xbfc5e952	-1.5461829
212	0x40890c1b	4.2827277
213	0x4087ae9b	4.240064
214	0xbfc16f1e	-1.5112035
215	0x40856b31	4.169335
216	0x4081e957	4.059734
217	0x408696ba	4.2058992
218	0x408bafa8	4.3651924
219	0x408e7c4a	4.452672
220	0xbfd50982	-1.6643527
221	0xbfd53471	-1.6656629
222	0xbfc94979	-1.5725547
223	0xbfc176b1	-1.5114347
224	0x4088cb05	4.2747827
225	0x4086b543	4.2096267
226	0x4083354b	4.1002555
227	0xbfd37c8e	-1.6522386
228	0xbfd51471	-1.6646863
229	0x408a20e9	4.3165174
230	0x4086206b	4.1914573
231	0x4086e9ae	4.2160254
232	0x4083843b	4.1098914
233	0x408447cd	4.1337647
234	0xbfd844dd	-1.6896015
235	0xbfc4c0a8	-1.5371294
236	0x40894518	4.2896843
237	0xbfce1bb2	-1.6102202
238	0xbfc662a0	-1.5498848
239	0x408a1650	4.3152237
240	0x408316b9	4.096524
241	0x408e792b	4.452291
242	0x408526bd	4.160979
243	0xbfcb9ed9	-1.5907851
244	0xbfc0c1ab	-1.5059103
245	0x408647f2	4.1962824
246	0xbfd34ba8	-1.6507463
247	0xbfd036f8	-1.6266775
248	0x40875d0c	4.2301083
249	0xbfcf20b4	-1.6181855
250	0x4088c67d	4.2742295
251	0x40895cb4	4.2925663
252	0x408bfe24	4.374773
253	0xbfbfe0d7	-1.4990491
254	0xbfc89598	-1.5670652
255	0x4082650d	4.0748353

fc2.bias f4 [32]
0	0x4101c342	8.11017
1	0x410247a7	8.142493
2	0x40fd1178	7.9083824
3	0xc1000e8d	-8.003552
4	0x40fb9377	7.861751
5	0x40fb7502	7.858033
6	0xc102a44d	-8.1651125
7	0xc10178e6	-8.092016
8	0xc0fd5119	-7.9161496
9	0x40fe1567	7.9401126
10	0x40fdf605	7.9362817
11	0xc1024021	-8.140656
12	0xc0fd9d59	-7.9254575
13	0x4102ccb8	8.17498
14	0xc0fd604d	-7.9180055
15	0xc0fab173	-7.8341613
16	0xc0fd7ab0	-7.9212265
17	0xc0fd64e6	-7.9185667
18	0xc100dba6	-8.053625
19	0x40fa9546	7.830722
20	0xc0fd86d2	-7.9227076
21	0x40ff633d	7.980864
22	0x4100986b	8.037211
23	0x41001c57	8.006919
24	0x40f93f91	7.7890096
25	0x41003c54	8.014729
26	0x40fff53f	7.9986873
27	0x40fa8d2f	7.8297343
28	0xc0fe8861	-7.954148
29	0xc0fe552d	-7.9478974
30	0xc0fda8a4	-7.926836
31	0xc1013a66	-8.076757

fc3.weight f4 [1, 32]
0	0x4020f0d9	2.5147002
1	0x401f40c9	2.4883292
2	0x4023c861	2.5591052
3	0xc01fd093	-2.4971054
4	0x4028634b	2.6310604
5	0x402338cb	2.5503414
6	0xc0202bf4	-2.5026827
7	0xc021d07e	-2.5283504
8	0xc02563b5	-2.5842106
9	0x40236d0a	2.5535302
10	0x40210fda	2.5165925
11	0xc01e83dc	-2.476798
12	0xc026647e	-2.5998836
13	0x401e9184	2.4776316
14	0xc026dec3	-2.6073463
15	0xc0282759	-2.6274016
16	0xc01eba9a	-2.4801393
17	0xc026726b	-2.6007335
18	0xc0210502	-2.5159307
19	0x4024c457	2.5744836
20	0xc0224f89	-2.5361044
21	0x4022a8d1	2.5415537
22	0x4023e3e0	2.5607834
23	0x4021dc6b	2.5290782
24	0x402827ff	2.6274412
25	0x40211a96	2.5172477
26	0x40284dd4	2.6297503
27	0x402436ab	2.5658367
28	0xc0249ed1	-2.5721934
29	0xc0248b3e	-2.5709987
30	0xc02364e2	-2.5530324
31	0xc01d5747	-2.458452
