Pricing model/best_model_cluster_0.pt (torch, 13395 bytes, 5 tensors)

fc1.weight f4 [64, 7]
0	0x3deda792	0.11604227
1	0xc08f6088	-4.4805336
2	0x3e946df5	0.2899014
3	0xbe87f4a2	-0.26553828
4	0xbe99af60	-0.30016613
5	0xbe897368	-0.2684586
6	0xc0230ed7	-2.5477808
7	0xbff7f736	-1.9372318
8	0x4002d030	2.0439568
9	0x3e11cdce	0.14238665
10	0xbdf4e400	-0.1195755
11	0xbf944ec8	-1.1586542
12	0xbea444f1	-0.32083848
13	0x3e0c0464	0.1367355
14	0x3e3f1cbd	0.18663307
15	0xc09aaa04	-4.833254
16	0x3e78aa7e	0.24283788
17	0x3c964c30	0.018346876
18	0xbea7fbdd	-0.32809344
19	0x3d55d850	0.052208245
20	0xc028c96c	-2.6372938
21	0xbdfe1f44	-0.12408307
22	0xc098b58a	-4.7721605
23	0xbe8a196a	-0.26972514
24	0xbe56625e	-0.20935962
25	0xbef2f50a	-0.47452575
26	0xbdb314c0	-0.08744192
27	0xc032e570	-2.7952538
28	0xc007cd7c	-2.1219168
29	0x3ffd6e41	1.9799272
30	0xbeb07a9a	-0.34468538
31	0xbe2cc0ad	-0.16870375
32	0xbf78088b	-0.96888036
33	0xbdf363b8	-0.11884254
34	0x3ed0b572	0.40763432
35	0xbd98011e	-0.07422088
36	0xc0946b26	-4.6380796
37	0x3e4ef726	0.20211467
38	0xbe854963	-0.26032552
39	0xbf8299e1	-1.020321
40	0xbdfcab10	-0.12337315
41	0xc03cc73a	-2.9496598
42	0xc001a53b	-2.0257099
43	0x3ff47a83	1.9099888
44	0xbe99d192	-0.30042702
45	0x3e6b850a	0.22999969
46	0xbf1dd34f	-0.61650556
47	0xbeb62cf5	-0.35581174
48	0x3e6fabad	0.23405333
49	0xbfc36953	-1.5266517
50	0x40107bba	2.2575517
51	0x3e29576e	0.16537258
52	0xbdecf550	-0.11570227
53	0xbf457eeb	-0.77146786
54	0xbe3d20e2	-0.18469575
55	0x3ea6b198	0.32557368
56	0xbed2ab5e	-0.41146368
57	0xc08cd36f	-4.40081
58	0x3ea8fdcb	0.3300613
59	0x3b113280	0.0022155344
60	0xbf2e8668	-0.6817384
61	0x3e0c144a	0.13679615
62	0xc029dce3	-2.6541069
63	0x3ae1e3af	0.0017233993
64	0xc0881c41	-4.253449
65	0x3d753b90	0.059871256
66	0xbe776b61	-0.24162056
67	0xbf7539ef	-0.95791525
68	0x3eba3ac7	0.3637297
69	0xc00ebe11	-2.2303507
70	0xbfe72704	-1.8058782
71	0x4017b23a	2.370253
72	0x3eaa024b	0.33204874
73	0xbe2dbe35	-0.1696709
74	0xbf1b9bbf	-0.60784525
75	0x3ea78da9	0.32725266
76	0x3e48505f	0.19561909
77	0xbfeeecba	-1.8665993
78	0x400b4e13	2.1766403
79	0xbeb6fb8c	-0.3573879
80	0xbe2c5f8d	-0.16833325
81	0xbf35dbed	-0.71038705
82	0x3e87a5d7	0.26493713
83	0x3cebfa31	0.028805824
84	0xbfc5286d	-1.5402962
85	0x400cec1a	2.2019105
86	0xbebbb88c	-0.36664236
87	0x3e50cb2e	0.20390007
88	0xbf89fdb0	-1.0780544
89	0x3eadc55b	0.33939633
90	0x3e51fb0d	0.20505925
91	0x3d0b2129	0.03396717
92	0xc08ace57	-4.337688
93	0x3e7c93ce	0.24665758
94	0xbe6a4060	-0.2287612
95	0xbf897a60	-1.0740471
96	0xbebb526b	-0.36586317
97	0xc02a2757	-2.658651
98	0xbfb1b65e	-1.3883779
99	0x401b3019	2.4248106
100	0xbe229bc1	-0.15879728
101	0x3e99a86d	0.3001131
102	0xbf8bc580	-1.0919647
103	0x3e9c96c3	0.30583772
104	0x3e9acea7	0.30235788
105	0xbfec6f11	-1.8471395
106	0x40125f51	2.2870677
107	0x3a990100	0.0011673272
108	0xbe372c60	-0.17888021
109	0xbf98abb1	-1.1927396
110	0xbea854e3	-0.32877263
111	0x3e0a3415	0.1349643
112	0xbdf71d99	-0.12066192
113	0xc0897796	-4.295848
114	0x3e78da76	0.24302086
115	0xbea09cf4	-0.31369746
116	0xbf3e5b33	-0.7435791
117	0x3eb591c1	0.35462764
118	0xc019a841	-2.4008944
119	0xbfc643e2	-1.5489466
120	0x3fed7f38	1.8554449
121	0xbe57a7a7	-0.21060048
122	0x3e0184e6	0.12648353
123	0xbf97440a	-1.1817639
124	0x3e10e69a	0.14150468
125	0x3e0320d6	0.12805495
126	0xbfe8c802	-1.8186038
127	0x400ca14c	2.1973448
128	0x3ddd3c6c	0.1080254
129	0xbe4ad5b4	-0.19808084
130	0xbf5992a9	-0.8498941
131	0xbe583dea	-0.21117368
132	0x3e6d7260	0.23188162
133	0xbff7eedd	-1.936977
134	0x400f2a31	2.2369502
135	0x3cb661c0	0.022263408
136	0xbe6aa56c	-0.22914666
137	0xbf9538e0	-1.1657982
138	0xbe7efc7c	-0.24901003
139	0xbd123d27	-0.03570285
140	0xbd6a66b9	-0.05722687
141	0xc083f04a	-4.123082
142	0xbd8dda5c	-0.06926414
143	0xbc18e560	-0.009332031
144	0xbf5ec4ed	-0.87019235
145	0x3e65950e	0.22420141
146	0xc02d589f	-2.708534
147	0xbefe7780	-0.49700546
148	0xc0982d57	-4.7555346
149	0x3e167232	0.14692
150	0x3e53d826	0.20687923
151	0xbf58b214	-0.84646726
152	0xbe211ded	-0.15734072
153	0xc034a4ac	-2.8225508
154	0xbe83aa02	-0.25715643
155	0xc08985a0	-4.2975616
156	0xbe1510d7	-0.14557205
157	0xbd701c08	-0.058620483
158	0xbef43b18	-0.47701335
159	0x3e06927a	0.13141814
160	0xc03cf661	-2.9525378
161	0xbeb16e61	-0.34654525
162	0xc09a0813	-4.8134856
163	0xbe86d617	-0.26335213
164	0x3d7a0e28	0.061048657
165	0xbf1e2a93	-0.61783713
166	0x3e389bfa	0.1802825
167	0xc02b41e6	-2.6758971
168	0xbfa8b79b	-1.3181032
169	0x400123ad	2.0178025
170	0xbb8d77c0	-0.004317254
171	0x3e81d2a7	0.25356027
172	0xbf337bfd	-0.70111066
173	0xbe887360	-0.26650524
174	0x3f15e368	0.5855012
175	0xbfd6d7c4	-1.6784596
176	0x3fe9c59c	1.826343
177	0x3cd60510	0.02612546
178	0x3e0e8b2a	0.13920274
179	0xbf8a97e9	-1.0827609
180	0xbe3dd024	-0.1853643
181	0x3ea124e2	0.31473452
182	0xbe98f12b	-0.29871497
183	0xc084085c	-4.1260204
184	0xbeb12f96	-0.34606618
185	0x3e4c5946	0.1995593
186	0xbf108ca9	-0.5646463
187	0x3d95f494	0.0732204
188	0xc036b6da	-2.8549104
189	0xbff587e3	-1.9182094
190	0x3fe8ff6e	1.8202951
191	0x3ea20c99	0.31650236
192	0xbbbcc580	-0.0057608485
193	0xbf1f7997	-0.62294906
194	0xbe7c0695	-0.24611886
195	0xbb4caa2b	-0.0031229358
196	0xc0036a51	-2.053364
197	0x40028c8d	2.0398285
198	0xbe6631d8	-0.22479951
199	0xbdea21b8	-0.114322126
200	0xbf4cfa04	-0.80068994
201	0xbe107c80	-0.14109993
202	0x3b979e42	0.00462702
203	0x3d586a2e	0.052835636
204	0xc099ed38	-4.8102074
205	0xbeb5e635	-0.35527197
206	0xbcfc14b0	-0.030771583
207	0xbf1bc10f	-0.6084146
208	0xbcdb7620	-0.026789725
209	0xc00cf16e	-2.2022357
210	0xbfeafb76	-1.835799
211	0x3ff3babb	1.9041361
212	0x3e8083a1	0.25100425
213	0x3e7c4fda	0.24639836
214	0xbf90526c	-1.1275153
215	0xbdc72ad0	-0.09724963
216	0x3d9ee7a1	0.077590235
217	0xbfe19334	-1.7623048
218	0x4008b43d	2.1360009
219	0x3db1e570	0.0868634
220	0xbdfa06e8	-0.122083485
221	0xbf3fa31e	-0.7485827
222	0x3e99cb09	0.30037716
223	0x3d2672da	0.040636875
224	0xbecc2140	-0.39869118
225	0xc0958b34	-4.6732426
226	0x3eaf7931	0.3427215
227	0xbd63b480	-0.05559206
228	0xbf6d1b64	-0.9261992
229	0xbe8437d2	-0.25823838
230	0xc0194e33	-2.395398
231	0xbeb65616	-0.35612553
232	0xc0948227	-4.6408877
233	0x3c003dc0	0.007827222
234	0x3e2eaf8a	0.1705915
235	0xbf871238	-1.0552435
236	0x3e15c23e	0.14624879
237	0xc035c600	-2.84021
238	0xbe8d8431	-0.27639917
239	0xc093269a	-4.598462
240	0x3d5f59f0	0.05452913
241	0x3e8671f3	0.2625881
242	0xbf0edc2e	-0.5580472
243	0x3e817691	0.2528577
244	0xc025d389	-2.591036
245	0xbfd43e74	-1.6581559
246	0x401135e0	2.2689133
247	0xbda285e0	-0.07935691
248	0x3e48480e	0.19558737
249	0xbf8ae751	-1.0851842
250	0xbeac736d	-0.33681813
251	0x3da4d85c	0.0804908
252	0xc0046f91	-2.0693095
253	0x4015ea07	2.342409
254	0x3e7a6c7a	0.24455443
255	0xbebc6e74	-0.3680302

fc1.bias f4 [64]
0	0xc0c0f423	-6.029802
1	0x4036f6f3	2.8588226
2	0xc0ba7101	-5.8262944
3	0xc0c2af9c	-6.0839367
4	0x4045c529	3.0901587
5	0xc0c0190f	-6.003059
6	0x404781ef	3.1173055
7	0x4033c15d	2.808677
8	0xc0c220b8	-6.066494
9	0xc0c05f2e	-6.0116186
10	0x402c914b	2.696368
11	0x4048453a	3.1292253
12	0x4045a4d6	3.0881858
13	0xc0bafcd2	-5.843362
14	0x402be1b4	2.6856508
15	0x402d1e50	2.7049751
16	0xc0b56aba	-5.669278
17	0x40446c9a	3.0691285
18	0x403ed0a3	2.9814842
19	0x403574d6	2.835256
20	0xc0bb25b8	-5.8483543
21	0xc0b117e0	-5.5341644
22	0xc0b6ff1c	-5.7186413
23	0xc0b9adb3	-5.8024535
24	0x4030e55a	2.7639985
25	0x404031fb	3.0030506
26	0xc0b6673f	-5.7001033
27	0x40416d92	3.0223126
28	0x4045954a	3.087237
29	0xc0beca30	-5.962181
30	0x403c9652	2.9466748
31	0x4037e550	2.8733711
32	0xc0bcfb77	-5.9056964
33	0xc0c0b9a3	-6.0226607
34	0xc0b8d6d9	-5.7762265
35	0x4042ccc6	3.0437484
36	0x403bfcb1	2.937298
37	0xc0bb1f95	-5.847605
38	0xc0c01b80	-6.003357
39	0xc0be8f13	-5.954965
40	0x403c5f93	2.9433334
41	0xc0c25fc1	-6.0741887
42	0x403778e1	2.8667529
43	0xc0c340e1	-6.10167
44	0xc0be4a52	-5.9465723
45	0x4038699c	2.881446
46	0x4032e3be	2.7951503
47	0x4042868c	3.039462
48	0x4043b69c	3.0580206
49	0xc0be00cf	-5.9375987
50	0xc0bb7dcf	-5.8591075
51	0x403e2327	2.9708955
52	0x4033d956	2.8101401
53	0xc0c040d1	-6.007912
54	0x4038b3f4	2.8859835
55	0x403d09f3	2.9537323
56	0xc0c227c5	-6.0673547
57	0xc0bc2a2a	-5.880147
58	0x402b1999	2.6734374
59	0x402db3f3	2.7141082
60	0x4048a000	3.1347656
61	0xc0bee5e7	-5.9655643
62	0x4042f83c	3.046401
63	0xc0c09b7d	-6.0189805

fc2.weight f4 [32, 64]
0	0x4092fb88	4.5932045
1	0xc00d4542	-2.2073522
2	0x40921edf	4.5662684
3	0x408da007	4.4257846
4	0xbffea36d	-1.9893624
5	0x408c4009	4.382817
6	0xbffd9e78	-1.9813986
7	0xc005d860	-2.0913315
8	0x4083c182	4.1173716
9	0x408f5294	4.4788303
10	0xc0089295	-2.1339467
11	0xc00fa9e3	-2.244744
12	0xbff41551	-1.9069005
13	0x408a1ec8	4.3162575
14	0xc005230d	-2.0802643
15	0xc009d1c5	-2.1534283
16	0x40845fc5	4.1366906
17	0xc007cbf4	-2.1218233
18	0xc00c4296	-2.191564
19	0xc00b70ba	-2.1787553
20	0x408d042c	4.4067593
21	0x408973c8	4.2953835
22	0x408ca0d0	4.3946304
23	0x408a8264	4.328417
24	0xc00c9c9c	-2.1970587
25	0xc00d1b8e	-2.2048068
26	0x408098dd	4.01866
27	0xc0118491	-2.2737162
28	0xc01c0866	-2.4380126
29	0x408d6a22	4.4192057
30	0xc006114b	-2.0948055
31	0xc007b4a0	-2.1203995
32	0x40928edc	4.579939
33	0x4085b01b	4.1777472
34	0x4085ca7b	4.180967
35	0xc006eb0a	-2.1080956
36	0xc0121d2a	-2.28303
37	0x408bacb0	4.36483
38	0x40869311	4.2054524
39	0x4091a916	4.5518904
40	0xc00cc5de	-2.1995769
41	0x408c0061	4.3750463
42	0xc00b6616	-2.1781058
43	0x4091670b	4.5438285
44	0x40836767	4.1063724
45	0xc005e1bd	-2.091903
46	0xbffa2358	-1.9542036
47	0xc002a617	-2.0413873
48	0xc00a8f34	-2.1649904
49	0x40849d51	4.1442037
50	0x408d0b0a	4.4075975
51	0xc000ff56	-2.0155845
52	0xc00372f8	-2.0538921
53	0x408d86f5	4.4227242
54	0xbffabafc	-1.9588313
55	0xbff76844	-1.9328694
56	0x408e4e04	4.4470234
57	0x408b25ae	4.3483496
58	0xc0037c79	-2.0544722
59	0xc00a2b98	-2.1589108
60	0xc007e1e7	-2.123163
61	0x40903510	4.5064774
62	0xc00e2bfc	-2.2214346
63	0x408a3b90	4.319771
64	0x40966160	4.6993866
65	0xc01079a4	-2.2574244
66	0x40944bac	4.6342373
67	0x408bf8d4	4.3741245
68	0xc003d6cc	-2.0599852
69	0x408d67bc	4.418913
70	0xc00c4278	-2.191557
71	0xc0018867	-2.0239503
72	0x408d821c	4.4221325
73	0x408f28c8	4.473728
74	0xc00d4421	-2.2072833
75	0xc010beb6	-2.26164
76	0xbffedb97	-1.9910764
77	0x408c8ca9	4.3921704
78	0xc004a9ec	-2.0728712
79	0xc00967b2	-2.146954
80	0x408c2c88	4.380436
81	0xc00552d4	-2.0831804
82	0xc00a1d81	-2.1580508
83	0xc0118781	-2.2738955
84	0x408edcc2	4.464448
85	0x40840287	4.1253085
86	0x408d5c8a	4.4175463
87	0x408c98c4	4.393648
88	0xc010034c	-2.2502012
89	0xc0110168	-2.2657108
90	0x4089768d	4.2957215
91	0xc00fab12	-2.2448163
92	0xc00f62bd	-2.2404015
93	0x408f588f	4.4795604
94	0xc00d0c2d	-2.2038682
95	0xc00e49c1	-2.2232516
96	0x4092e870	4.5908737
97	0x40850d15	4.157847
98	0x4084d8eb	4.1514792
99	0xc00d8b0f	-2.2116125
100	0xc019203a	-2.392592
101	0x409334a0	4.600174
102	0x40895bf4	4.2924747
103	0x4091f12b	4.5606894
104	0xc005b767	-2.089319
105	0x408aab51	4.3334126
106	0xc005ba3f	-2.0894926
107	0x4092f03c	4.5918255
108	0x4085daed	4.1829743
109	0xc001a3d1	-2.0256236
110	0xc00809d1	-2.1255991
111	0xc008e535	-2.1389897
112	0xc0149068	-2.3213139
113	0x408819c2	4.2531443
114	0x408fb569	4.490895
115	0xbff29a3a	-1.8953316
116	0xc008275e	-2.1274028
117	0x408f53a6	4.478961
118	0xc00e38b7	-2.2222116
119	0xc00c36a9	-2.1908362
120	0x408cf2ac	4.404623
121	0x408738ef	4.2257
122	0xc00a678c	-2.16257
123	0xc00c7698	-2.1947384
124	0xc00a068b	-2.1566494
125	0x409403f4	4.6254826
126	0xc012a15e	-2.291099
127	0x408d45c8	4.414768
128	0x40941483	4.627504
129	0xc0146ed1	-2.3192637
130	0x408dd3df	4.432113
131	0x408bacf7	4.364864
132	0xc0083a8a	-2.128573
133	0x408e2c15	4.442881
134	0xc0114d1e	-2.2703319
135	0xc0064307	-2.097841
136	0x408d7bd4	4.4213657
137	0x408e4f97	4.4472156
138	0xc006a7a1	-2.1039813
139	0xc009c9e9	-2.1529486
140	0xc004de68	-2.0760746
141	0x408cb55f	4.39714
142	0xc00ffbb1	-2.249737
143	0xc004343c	-2.0656881
144	0x4089ac59	4.3022885
145	0xc002066c	-2.031642
146	0xc0026fc8	-2.0380726
147	0xc0154220	-2.332161
148	0x4089656f	4.293632
149	0x40876ab1	4.231774
150	0x408ef209	4.4670453
151	0x408b1569	4.3463635
152	0xc0013f5c	-2.0194921
153	0xc015b885	-2.3393872
154	0x40847e63	4.140428
155	0xc0178d23	-2.3679893
156	0xc011377a	-2.269011
157	0x408e5968	4.448414
158	0xc00af798	-2.171362
159	0xc0155de0	-2.3338547
160	0x4093b640	4.6159973
161	0x40858691	4.1726766
162	0x4084697a	4.1378756
163	0xc00b8ed6	-2.180593
164	0xc00da178	-2.2129803
165	0x40925609	4.5730023
166	0x4089e058	4.3086357
167	0x408eaee6	4.45885
168	0xc0082821	-2.1274493
169	0x408989f8	4.298092
170	0xc00866f8	-2.1312847
171	0x4091b973	4.553888
172	0x408306d8	4.0945854
173	0xc000a80a	-2.0102563
174	0xc0025ed1	-2.0370371
175	0xc0037961	-2.0542834
176	0xc0186995	-2.3814442
177	0x408789d6	4.2355757
178	0x408e7678	4.4519615
179	0xbffdfdec	-1.9843116
180	0xc00d855a	-2.2112641
181	0x40959026	4.6738462
182	0xc00ba0aa	-2.1816812
183	0xc00a124f	-2.1573675
184	0x4090c85e	4.524459
185	0x408c19bd	4.378142
186	0xc011911c	-2.2744818
187	0xc00a7bf5	-2.1638157
188	0xc012eedd	-2.295829
189	0x408c0b9b	4.3764167
190	0xc013a2b8	-2.3068066
191	0x408a2343	4.3168044
192	0xc091507a	-4.541074
193	0x4005d1c2	2.0909276
194	0xc08c048e	-4.375556
195	0xc089ad7e	-4.3024282
196	0x3ff6d98b	1.9285139
197	0xc08733c1	-4.2250676
198	0x40028513	2.0393722
199	0x400251ea	2.0362496
200	0xc089d8f9	-4.307736
201	0xc08d3cbd	-4.4136643
202	0x400b0648	2.1722584
203	0x400e4840	2.2231598
204	0x3ff5ecf4	1.9212937
205	0xc08b0275	-4.34405
206	0x400c68d8	2.1938992
207	0x400f9d9b	2.2439945
208	0xc087cacf	-4.243507
209	0x3ff9ce6f	1.9516124
210	0x4007b5d5	2.1204731
211	0x400d4230	2.2071648
212	0xc089110c	-4.283331
213	0xc082b3c8	-4.084446
214	0xc08ded6f	-4.4352336
215	0xc0846a0d	-4.1379457
216	0x400801d5	2.1251118
217	0x400ccc7d	2.199981
218	0xc0852314	-4.160532
219	0x4014c31f	2.3244092
220	0x40093613	2.1439254
221	0xc08961c4	-4.2931843
222	0x400782a0	2.1173477
223	0x40077f8e	2.1171603
224	0xc08b8706	-4.3602324
225	0xc082851d	-4.078749
226	0xc082ad06	-4.083621
227	0x40075c78	2.1150188
228	0x400f16ce	2.235767
229	0xc0898c8b	-4.298406
230	0xc0866642	-4.1999826
231	0xc088d38c	-4.2758236
232	0x3ff5f24f	1.9214572
233	0xc08a179b	-4.3153815
234	0x3ff9abd7	1.9505566
235	0xc091512a	-4.5411577
236	0xc085b630	-4.1784897
237	0x3fed94de	1.8561056
238	0x40004862	2.004418
239	0x400b9438	2.1809216
240	0x4008b8cf	2.1362798
241	0xc08224af	-4.066978
242	0xc088a145	-4.269686
243	0x3ffc30a4	1.9702344
244	0x400cead5	2.201833
245	0xc091b62c	-4.553488
246	0x40084047	2.1289232
247	0x4002af01	2.0419314
248	0xc08dadae	-4.427451
249	0xc089bc73	-4.304254
250	0x4003aea8	2.0575352
251	0x400437d8	2.0659084
252	0x400f15f8	2.2357159
253	0xc08f5b25	-4.479876
254	0x401303af	2.2970998
255	0xc08b7c6c	-4.358938

fc2.bias f4 [32]
0	0xc0bd0a44	-5.907503
1	0xc0c1819d	-6.047072
2	0xc0bd3e8f	-5.9138865
3	0x40bb3acb	5.850927
4	0x40b7e980	5.7472534
5	0xc0b90689	-5.7820477
6	0x40b8a402	5.7700205
7	0x40b6c83a	5.7119417
8	0xc0b710e2	-5.720811
9	0x40bd0867	5.9072757
10	0x40b99146	5.7989836
11	0x40bd5451	5.9165425
12	0xc0c0c70e	-6.0242987
13	0xc0b5130b	-5.6585746
14	0xc0b876a9	-5.764485
15	0xc0b4dc87	-5.65192
16	0xc0bb5cd1	-5.85508
17	0x40ba798d	5.8273377
18	0x40ba2062	5.816453
19	0x40baced9	5.83775
20	0x40bea501	5.957642
21	0xc0b592b0	-5.674156
22	0xc0c0466f	-6.008598
23	0x40b486c0	5.641449
24	0xc0bbfac0	-5.874359
25	0xc0b6f7cb	-5.717748
26	0xc0bb16a3	-5.8465133
27	0x40bb52fe	5.853881
28	0x40b8a4ce	5.7701178
29	0xc0b86342	-5.7621164
30	0x40bd802f	5.9218974
31	0x40b85a4f	5.761024

fc3.weight f4 [1, 32]
0	0xc0339202	-2.8057866
1	0xc030d35b	-2.7629
2	0xc02b7c6e	-2.6794696
3	0x403272ed	2.7882645
4	0x4030b590	2.7610817
5	0xc037345d	-2.862571
6	0x40325845	2.7866375
7	0x4035f384	2.842988
8	0xc0333414	-2.8000536
9	0x4030ce3c	2.7625875
10	0x4032d565	2.7942746
11	0x40345bf8	2.8181133
12	0xc02c97a8	-2.6967564
13	0xc032d6a3	-2.7943504
14	0xc0335209	-2.801882
15	0xc03329c0	-2.7994232
16	0xc0341fd8	-2.8144436
17	0x4030d531	2.7630122
18	0x4036a33e	2.8537135
19	0x40362fed	2.8466752
20	0x4030e6f9	2.7640975
21	0xc0317967	-2.7730348
22	0xc02ff267	-2.74917
23	0x403817a0	2.876442
24	0xc02ef6ef	-2.7338216
25	0xc033c9c5	-2.80919
26	0xc0306194	-2.7559557
27	0x4031c67d	2.7777398
28	0x4035e04c	2.841815
29	0xc033d9fd	-2.81018
30	0x40320e86	2.7821364
31	0x4033b546	2.807939
